public/model.onnx (onnx, 88623 bytes, 8 tensors)

conv1.weight f4 [10, 1, 5, 5]
0.24607888 0.025500188 -0.14110081 -0.032121826 0.16066943 0.057941817 0.19674398 0.2837271
0.3306874 0.16017033 0.1282938 0.16827439 0.25155097 0.3579991 0.076038435 0.041634943
-0.1138769 -0.09196747 -0.20393293 -0.1076352 -0.21963781 -0.19981581 -0.31633624 -0.33020478
-0.12311975 -0.2235907 -0.11857107 0.10957279 0.27295905 0.26252928 -0.18853724 -0.05976206
-0.1177877 0.27692783 0.20709209 -0.30074033 -0.15371016 -0.071252316 0.006055932 0.30324683
-0.23487748 0.021190612 0.06281545 0.20069194 0.07973608 -0.29813015 -0.010299353 0.018702205
0.29344067 -0.03048868 0.09579893 0.35598433 0.12936753 0.28394112 0.4532866 0.055296898
0.14938481 0.35401535 0.07304921 0.26844177 -0.23686169 -0.20372999 -0.0036328628 -0.16285217
-0.0049406206 -0.2503741 -0.63231176 -0.4127475 -0.13666083 0.051369905 -0.15721576 0.02226138
-0.2259862 -0.15831228 -0.10002223 0.2460967 0.069054596 -0.12401006 -0.122874856 0.0034932091
0.11508654 -0.068736956 -0.37817413 -0.09224608 0.3066941 0.029272396 -0.40051693 -0.3186833
0.030656993 0.3236828 -0.48771548 -0.33857277 -0.14069077 0.093240365 0.24828611 -0.2989706
0.038588595 -0.059469588 0.31140575 0.21065061 0.1427553 0.17604297 0.3242255 0.29749915
0.23036656 0.19788133 0.077597804 0.20089495 0.16646723 0.30467775 0.08416404 -0.007691285
0.21025686 -0.06504119 0.20923334 0.04219015 -0.09106831 0.0762298 -0.024422973 -0.06182006
-0.27982795 -0.2994714 -0.026239565 0.13067263 0.25585127 0.03683874 -0.10908512 -0.15317549
-0.024802309 -0.16512118 0.037706677 -0.17339355 0.086501 0.21810482 0.2139134 -0.027788017
0.039778072 0.14134881 0.055603534 0.29662696 0.071776554 0.1829464 0.19379434 0.32725513
0.021073109 0.3011519 -0.07530117 0.1285369 -0.0040706936 0.28922805 0.036656685 0.087894805
0.13029042 0.32068917 0.091212384 -0.1404315 -0.19029245 0.20199238 0.17558983 0.3345451
-0.11100864 -0.10363592 0.041712184 0.27719048 0.030331412 -0.21068695 -0.097615786 0.22402282
0.07469101 0.31351268 -0.14107022 0.0077300007 0.18188617 0.3090179 -0.15000494 -0.2886649
-0.516733 -0.28356543 -0.42928335 -0.24936466 -0.21944521 -0.30719107 -0.35153666 -0.21350607
-0.16045645 -0.2011193 0.20009725 0.12035934 0.042060062 0.19906631 0.16341828 0.027404862
0.27906168 0.032692432 0.2812337 0.17101067 0.034413192 0.10677925 0.0438597 0.38198128
0.18978913 0.003590402 -0.1521524 0.09339126 -0.0013589045 0.09954567 0.31940746 -0.026155625
-0.29691324 -0.50182706 0.19071385 0.30653322 0.23814403 -0.110685006 -0.34802353 0.085611485
0.23750965 0.1970653 0.23410898 -0.009059811 0.040739477 0.124679364 0.12032882 0.002649521
0.20334832 0.009059667 -0.42033565 -0.2936261 0.23745447 0.13109055 -0.16351697 -0.38878828
-0.19340254 0.27433884 0.09671921 -0.4154875 -0.33667007 -0.36360982 0.23079804 0.18568744
-0.39185843 -0.13653451 -0.030076608 0.06662107 0.21319854 -0.2950565 0.01300737 0.005796776
0.13593161 0.26086274
00000000: 1afc 7b3e c5e5 d03c bb7c 10be 2d92 03bd
00000010: 8786 243e 6654 6d3d 4177 493e ae44 913e
00000020: dc4f a93e b103 243e 735f 033e 1f50 2c3e
00000030: 4acb 803e a84b b73e 0aba 9b3d 6789 2a3d
00000040: 4b38 e9bd 7159 bcbd cbd3 50be d86f dcbd
00000050: bce8 60be 849c 4cbe d3f6 a1be 9a10 a9be
00000060: 3526 fcbd f6f4 64be 64d5 f2bd b367 e03d
00000070: 4ac1 8b3e 3d6a 863e e80f 41be 10c9 74bd
00000080: ad3a f1bd 7cc9 8d3e f30f 543e a3fa 99be
00000090: 3266 1dbe bcec 91bd d770 c63b 2b43 9b3e
000000a0: b983 70be ef97 ad3c 63a5 803d 3082 4d3e
000000b0: ab4c a33d 84a4 98be 9ebe 28bc 5e35 993c
000000c0: db3d 963e 65c3 f9bc 3b32 c43d 9443 b63e
000000d0: ec78 043e bb60 913e 2e15 e83e 007f 623d
000000e0: 55f8 183e 8041 b53e d39a 953d 3371 893e
000000f0: df8b 72be 989e 50be 5315 6ebb b8c2 26be
00000100: eee4 a1bb 0931 80be 2fdf 21bf a453 d3be
00000110: d1f0 0bbe 4069 523d 2bfd 20be 7f5d b63c
00000120: ed68 67be 9d1c 22be 74d8 ccbd c600 7c3e
00000130: 7f6c 8d3d fdf8 fdbd d0a5 fbbd 53ee 643b
00000140: 7eb2 eb3d f6c5 8cbd 0aa0 c1be 83eb bcbd
00000150: 0207 9d3e aacc ef3c 8e10 cdbe 752a a3be
00000160: 6024 fb3c c1b9 a53e d8b5 f9be 6959 adbe
00000170: 3e11 10be cef4 be3d b73e 7e3e ad12 99be
00000180: 130f 1e3d 6296 73bd 9370 9f3e cbb4 573e
00000190: 722e 123e 9c44 343e e200 a63e cf51 983e
000001a0: 36e5 6b3e 67a1 4a3e 99eb 9e3d 68b7 4d3e
000001b0: 6376 2a3e b9fe 9b3e 325e ac3d 2d07 fcbb
000001c0: 934d 573e 5134 85bd 4441 563e 94cf 2c3d
000001d0: 0682 babd 5f1e 9c3d b012 c8bc 0837 7dbd
000001e0: 9c45 8fbe 5154 99be 5bf4 d6bc 0ccf 053e
000001f0: f0fe 823e 38e4 163d 0568 dfbd 09da 1cbe
00000200: 362e cbbc 8715 29be 5172 1a3d 148e 31be
00000210: 7027 b13d df56 5f3e 1d0c 5b3e b2a3 e3bc
00000220: 55ee 223d bebd 103e 88c0 633d 7ddf 973e
00000230: 96ff 923d 4d56 3b3e 0672 463e fc8d a73e
00000240: 83a1 ac3c 9530 9a3e 8037 9abd 2d9f 033e
00000250: 7463 85bb b315 943e 5225 163d 3102 b43d
00000260: da6a 053e 5f31 a43e 8fcd ba3d 46cd 0fbe
00000270: 06dc 42be 17d7 4e3e d2cd 333e 7f49 ab3e
00000280: 7f58 e3bd 123f d4bd 65da 2a3d e9eb 8d3e
00000290: 9579 f83c 52be 57be c9ea c7bd 3d66 653e
000002a0: 9af7 983d bc84 a03e b674 10be f24b fd3b
000002b0: 5e40 3a3e 9837 9e3e e59a 19be e3cb 93be
000002c0: 9d48 04bf 7d2f 91be 07cb dbbe 7359 7fbe
000002d0: 3fb6 60be 2648 9dbe 9dfc b3be 56a1 5abe
000002e0: b24e 24be 38f2 4dbe 4be6 4c3e f57e f63d
000002f0: 2c47 2c3d 0ad8 4b3e 1f57 273e 2980 e03c
00000300: 2ce1 8e3e 80e8 053d ddfd 8f3e 6c1d 2f3e
00000310: d9f4 0c3d 14af da3d 3ba6 333d 0d93 c33e
00000320: 1558 423e f34c 6b3b d7cd 1bbe eb43 bf3d
00000330: 451d b2ba 9ade cb3d 6089 a33e 5244 d6bc
00000340: 0305 98be bd77 00bf 7e4a 433e ecf1 9c3e
00000350: 07dc 733e d2ae e2bd 2430 b2be 1355 af3d
00000360: bb35 733e 7ccb 493e 44ba 6f3e 9a6f 14bc
00000370: 70de 263d e557 ff3d f56e f63d 96a3 2d3b
00000380: 8b3a 503e ff6e 143c 3c36 d7be 2956 96be
00000390: 4427 733e 9a3c 063e fe70 27be 420f c7be
000003a0: 510b 46be 2476 8c3e b914 c63d c7ba d4be
000003b0: 0560 acbe 112b babe 5256 6c3e d924 3e3e
000003c0: aba1 c8be b4cf 0bbe 3863 f6bc a170 883d
000003d0: b850 5a3e a511 97be dd1c 553c e2f2 bd3b
000003e0: a831 0b3e cd8f 853e

conv1.bias f4 [10]
-0.00209632 0.01660273 0.16003567 -0.014875632 0.036655605 -0.06309666 -0.1375267 0.1413003
0.0012555216 0.12729408
00000000: 6a62 09bb 7302 883c 64e0 233e ecb8 73bc
00000010: 3024 163d d238 81bd cdd3 0cbe 07b1 103e
00000020: 5090 a43a 6159 023e

conv2.weight f4 [20, 10, 5, 5]
0.06844056 0.11997663 0.1359379 0.12130652 -0.0021714175 0.01056137 0.06382005 -0.06852192
-0.05939459 -0.002194031 -0.1420829 -0.087579615 -0.08360114 -0.06552801 0.063290365 -0.04234411
-0.043309312 -0.010321467 -0.028078653 0.0013826535 0.028583597 -0.0810946 -0.08597463 -0.117631
-0.15232259 -0.0539829 -0.007959862 0.01655713 0.02902336 -0.058078896 0.07380603 -0.01890578
0.08649602 0.013714467 0.0021971774 -0.087458126 -0.038028684 0.02609047 0.037913483 -0.037265547
-0.051206727 0.012164075 0.10768569 0.0883984 -0.1054824 0.037179787 0.07311278 0.14544989
0.058825642 -0.09187297 0.17407984 0.13401589 0.12791036 0.07001928 0.007276267 0.10842581
0.18711081 0.14785956 0.024809536 -0.1416975 0.056169953 0.024795247 -0.019405043 -0.11009355
-0.17751507 -0.11670916 -0.07900296 -0.09278002 -0.10748053 -0.1200846 -0.036069956 -0.060215697
-0.013734592 -0.09237319 -0.13929147 -0.001026907 -0.10648124 -0.05893522 -0.09256494 -0.0030554875
-0.06259831 -0.08017386 0.0840374 0.045590367 0.20532191 0.0007732391 0.062499613 0.13678755
0.07200973 0.06706422 0.10015708 0.07005117 0.14224544 0.10531835 -0.12018267 0.0113143185
0.13243234 0.11031845 0.05586114 -0.13174821 0.009020551 0.083059505 0.050315335 0.06783422
0.12647544 0.033364743 0.08408019 0.06502116 0.08905546 -0.050804805 -0.118743636 -0.10416698
-0.043785777 0.0034822712 0.008534539 -0.11848535 -0.06955209 0.039945707 -0.031577084 -0.015348737
-0.0052322955 -0.027754422 0.02296108 -0.055685267 -0.13705757 -0.01248133 0.0141162835 0.084703855
0.09300353 -0.04960603 -0.1582351 -0.07098279 0.074206464 0.08986258 -0.0006598933 -0.13712117
-0.054146133 0.008134711 0.06740985 0.0034657053 -0.09326702 -0.02519181 -0.041589614 0.014998648
-0.19334835 -0.04732662 -0.0012891617 0.02163821 -0.11300016 -0.22218026 -0.01994735 0.009253082
0.053044435 0.07217672 0.00032013826 0.0067582647 -0.012960338 -0.033802174 0.14221065 0.14332955
-0.047743984 0.026492342 0.13076228 0.15862714 0.012330603 -0.06374655 -0.03795371 0.12226593
0.11937872 -0.13588257 -0.0072773136 -0.045751266 0.12665014 0.076396525 -0.08067687 0.034083053
-0.033799555 0.0014505531 0.052924775 -0.062045295 0.040929057 -0.06659023 0.044055674 -0.023733806
-0.047989003 0.05076283 0.020384697 0.062174577 0.07761804 -0.16036323 0.06540917 0.01158144
0.06858626 -0.006849101 -0.34806037 -0.02557319 -0.0012209783 -0.087434866 -0.109746344 -0.2749385
0.010877781 0.0030342608 -0.047404658 -0.023221517 -0.0036030617 -0.05949189 -0.04426936 -0.06441675
-0.052638534 0.0065901903 -0.17759919 -0.13837174 -0.09913269 -0.008609364 0.07892291 -0.13994205
-0.083781525 -0.061909694 0.017591108 0.078301504 -0.12587291 -0.06489569 -0.040384836 0.00080697803
0.07080966 0.03678424 0.0300845 0.022692315 -0.004852542 0.012047437 -0.039894134 -0.05241954
0.05595603 -0.0051096766 -0.016834822 0.0036434794 -0.009354355 0.04763758 0.12841055 -0.016171062
0.025419857 0.024658253 0.064971544 0.12012387 -0.1296409 0.033263966 0.10057636 0.05458649
0.17281583 -0.00602255 -0.12062178 -0.13005103 0.0049172393 -0.009893879 0.043101165 -0.10447934
00000000: 902a 8c3d 4fb6 f53d 4e33 0b3e 8e6f f83d
00000010: 574e 0ebb 9909 2d3c 16b4 823d 3855 8cbd
00000020: be47 73bd bbc9 0fbb 2e7e 11be f15c b3bd
00000030: 1337 abbd 8d33 86bd 619e 813d 0471 2dbd
00000040: 1b65 31bd 5f1b 29bc 3405 e6bc 273a b53a
00000050: 2628 ea3c ed14 a6bd 7813 b0bd 86e8 f0bd
00000060: 74fa 1bbe 2c1d 5dbd 156a 02bc d1a2 873c
00000070: 66c2 ed3c 23e4 6dbd 9e27 973d 4be0 9abc
00000080: d324 b13d a5b2 603c 85fe 0f3b 3f1d b3bd
00000090: f7c3 1bbd aebb d53c 2b4b 1b3d c2a3 18bd
000000a0: 25be 51bd d44b 473c 518a dc3d 380a b53d
000000b0: 2807 d8bd d549 183d 27bc 953d d1f0 143e
000000c0: 28f3 703d e527 bcbd fc41 323e 763b 093e
000000d0: effa 023e 4566 8f3d c06d ee3b 5a0e de3d
000000e0: fa99 3f3e 7f68 173e 5e3d cb3c 2619 11be
000000f0: 7712 663d 671f cb3c 53f7 9ebc ba78 e1bd
00000100: 83c6 35be 3605 efbd 4ecc a1bd 7303 bebd
00000110: c11e dcbd eaee f5bd 17be 13bd bca4 76bd
00000120: 0e07 61bc 282e bdbd 6ca2 0ebe 4899 86ba
00000130: d612 dabd 0f66 71bd b092 bdbd 933e 48bb
00000140: 8b33 80bd 3132 a4bd cd1b ac3d f7bc 3a3d
00000150: e83f 523e 33b3 4a3a 98ff 7f3d 0912 0c3e
00000160: d679 933d f758 893d 281f cd3d fd76 8f3d
00000170: caa8 113e 26b1 d73d 5522 f6bd b15f 393c
00000180: 589c 073e a4ee e13d a7ce 643d 01e9 06be
00000190: efca 133c 1a1b aa3d 7417 4e3d abec 8a3d
000001a0: c782 013e 78a9 083d 3c32 ac3d d029 853d
000001b0: b662 b63d b318 50bd dd2f f3bd 7f55 d5bd
000001c0: b758 33bd d136 643b 73d4 0b3c 72a8 f2bd
000001d0: 5371 8ebd 1c9e 233d f956 01bd 4579 7bbc
000001e0: ad73 abbb 3e5d e3bc e018 bc3c 3c16 64bd
000001f0: d258 0cbe 7e7e 4cbc fc47 673c 3779 ad3d
00000200: a278 be3d b12f 4bbd 6208 22be 6d5f 91bd
00000210: 8ff9 973d df09 b83d b1fc 2cba 7e69 0cbe
00000220: 56c8 5dbd 7347 053c 2d0e 8a3d e320 633b
00000230: c802 bfbd 0e5f cebc df59 2abd e4bc 753c
00000240: 1cfd 45be 8fd9 41bd 17f9 a8ba 9e42 b13c
00000250: a16c e7bd 3983 63be a068 a3bc 3d9a 173c
00000260: 1f45 593d 63d1 933d 3bd8 a739 6f74 dd3b
00000270: 9957 54bc 2674 0abd ab9f 113e fbc4 123e
00000280: 328f 43bd 7806 d93c 8ce6 053e 276f 223e
00000290: 4c06 4a3c 8d8d 82bd 5975 1bbd 8f66 fa3d
000002a0: d57c f43d cd24 0bbe 8876 eebb ae65 3bbd
000002b0: 93b0 013e c875 9c3d ea39 a5bd ac9a 0b3d
000002c0: 6771 0abd 7c20 be3a a6c7 583d 3523 7ebd
000002d0: 3aa5 273d 7560 88bd b973 343d 666d c2bc
000002e0: 1e90 44bd afec 4f3d cffd a63c c5aa 7e3d
000002f0: 35f6 9e3d 4236 24be 3ef5 853d 15c0 3d3c
00000300: f476 8c3d 6c6e e0bb f834 b2be de7e d1bc
00000310: 3c09 a0ba 0d11 b3bd b1c2 e0bd bdc4 8cbe
00000320: b838 323c 73da 463b 632b 42bd 0d3b bebc
00000330: 5821 6cbb c5ad 73bd ca53 35bd eeec 83bd
00000340: 819b 57bd 86f2 d73b 90dc 35be 52b1 0dbe
00000350: 1406 cbbd 4a0e 0dbc 56a2 a13d f84c 0fbe
00000360: a695 abbd 0595 7dbd 3a1b 903c 8a5c a03d
00000370: d4e4 00be 08e8 84bd 926a 25bd 618b 533a
00000380: a804 913d 12ab 163d c573 f63c 3ce5 b93c
00000390: 1302 9fbb 9d62 453c 0868 23bd dfb5 56bd
000003a0: 2632 653d 136f a7bb 2ee9 89bc 71c7 6e3b
000003b0: 0243 19bc a01f 433d 0e7e 033e 2d79 84bc
000003c0: 4e3d d03c 1b00 ca3c cd0f 853d 8103 f63d
000003d0: 96c0 04be cc3f 083d fbfa cd3d 1596 5f3d
000003e0: a2f6 303e d058 c5bb 8d08 f7bd 192c 05be
000003f0: cb20 a13b f019 22bc d98a 303d 44f9 d5bd

conv2.bias f4 [20]
-0.09159284 -0.10986322 0.0093032075 0.0020106193 0.022548217 -0.03215622 0.056878973 -0.018917738
0.0626592 0.069802284 -0.006039516 -0.09723258 -0.010224202 0.054683253 -0.03020457 0.0042405156
0.053151596 -0.06563563 0.108854204 0.07769331
00000000: 0795 bbbd f8ff e0bd 7b6c 183c 98c4 033b
00000010: 0ab7 b83c 3eb6 03bd edf9 683d 5ff9 9abc
00000020: 7753 803d 80f4 8e3d 22e7 c5bb e021 c7bd
00000030: 6983 27bc 8cfb 5f3d 936f f7bc 06f4 8a3b
00000040: 7db5 593d f96b 86bd f4ee de3d ac1d 9f3d

fc1.weight f4 [50, 320]
-0.050236844 0.049149517 0.12143081 0.21366468 0.09350729 0.08394009 -0.09573851 -0.20371681
-0.066587225 -0.0130031025 0.0153691415 0.06611419 -0.03554857 -0.0062590283 0.0434268 -0.059023507
-0.18091206 -0.099669136 0.09106311 0.14163415 -0.01572966 0.0046203434 0.07933837 0.066857986
-0.021935867 -0.03236235 -0.04117616 -0.10936372 0.020600284 -0.019208528 0.048037283 -0.018654253
0.018813409 0.13270292 0.1242265 0.017356882 0.20924906 -0.005485902 -0.056630347 -0.027991751
-0.11045796 -0.09240865 -0.05740718 0.040674224 0.0735891 0.022341032 0.026056344 0.013041788
-0.031020472 0.015882494 -0.05077617 0.035201505 0.048916116 0.041550793 0.011223637 -0.038774475
-0.018884541 0.022846602 -0.047680385 0.031627387 0.04674476 -0.0076389955 0.014421068 0.032065086
0.10220913 -0.15848562 -0.16978225 0.012800176 -0.021860309 0.006305398 0.02515001 -0.04600378
0.09346992 -0.0026469505 0.051998053 0.0596133 -0.032633323 -0.06253751 0.017657213 -0.072452076
-0.16663514 0.049971685 0.102618866 0.08818557 -0.08859858 0.057231642 0.13670503 0.090954274
-0.08830102 0.03457136 -0.010434826 -0.18443409 -0.039611794 -0.011684859 0.09044718 0.034589484
0.09830196 -0.045315083 -0.19079275 -0.09903896 0.07365148 -0.0027616438 -0.024400467 -0.102060504
0.03168219 -0.016815681 0.01703254 -0.024024438 0.07315524 -0.019411497 -0.06966338 -0.0455209
0.08034986 0.0074012177 -0.056165427 -0.3009667 0.0638417 -0.09362225 -0.14687105 -0.17914127
0.02193064 -0.0016594735 -0.0117173325 0.058456577 -0.057914842 0.067220114 0.022880102 -0.015522074
0.037424296 0.024017703 0.24331777 -0.21205072 -0.0030307414 0.03167194 -0.0032028807 -0.03954373
0.056672715 -0.016877912 0.085990794 -0.17146541 0.12832975 0.07243013 0.041580092 -0.13598375
-0.07366175 0.043150067 0.11909492 0.22738552 0.0062542004 -0.010669065 -0.07470876 -0.03857423
-0.035050884 -0.041545745 0.035575207 0.04023832 0.00092644134 0.07999107 0.037807036 -0.015986424
-0.018865021 0.06337276 0.08809581 0.19743341 -0.019610154 -0.03485655 0.006963244 0.102262214
-0.052227493 -0.07484104 0.013849241 -0.021548368 -0.0046252306 0.037596475 -0.03489209 -0.121155
0.110372946 0.047157448 -0.17618492 -0.24810982 0.030490935 -0.07647596 -0.093760975 -0.1313926
0.01172709 0.04463193 0.009868858 0.099874794 -0.036361452 0.052443136 0.017800378 -0.061931647
0.0011445971 0.044375528 -0.07372394 -0.08656629 0.027584074 -0.013009154 -0.05167387 0.041602023
-0.015724028 0.015947577 0.06624608 0.010981116 -0.028289927 0.0748749 -0.07354923 -0.03698163
0.023365859 -0.18303491 -0.043169282 0.05095342 0.07091823 0.030039856 0.03734139 -0.029148089
-0.033440135 -0.10440192 0.09717153 0.112547904 -0.015712434 -0.010777884 -0.020800514 0.07940236
-0.06313048 0.0038375766 0.17983305 0.20383453 0.011275597 0.01954439 -0.09808447 0.04021237
-0.03925322 0.0047661066 0.041788172 -0.030830702 -0.030828303 -0.014847716 0.10095281 0.014389188
-0.10728622 -0.092058025 0.055497028 0.23726612 -0.076818235 0.04065441 -0.05575138 0.035302997
0.01762601 -0.013779997 0.013568897 0.013654901 -0.074832246 0.014815896 0.03795939 0.11957621
00000000: 26c5 4dbd 0151 493d b7b0 f83d eaca 5a3e
00000010: c080 bf3d c8e8 ab3d 8d12 c4bd 249b 50be
00000020: e25e 88bd f70a 55bc dace 7b3c e066 873d
00000030: 619b 11bd 8918 cdbb 4de0 313d a2c2 71bd
00000040: 0341 39be 551f ccbd 4c7f ba3d 8b08 113e
00000050: 7ddb 80bc 4066 973b 287c a23d d7ec 883d
00000060: d9b2 b3bc 628e 04bd 55a8 28bd 16fa dfbd
00000070: edc1 a83c 345b 9dbc bec2 443d ced0 98bc
00000080: 941e 9a3c 46e3 073e 776a fe3d 0530 8e3c
00000090: 6345 563e 15c3 b3bb 39f5 67bd f54e e5bc
000000a0: c837 e2bd bf40 bdbd cb23 6bbd 049a 263d
000000b0: e2b5 963d 8a04 b73c 1d74 d53c 39ad 553c
000000c0: a51e febc 011c 823c acfa 4fbd 742f 103d
000000d0: 445c 483d 2a31 2a3d 58e3 373c fcd1 1ebd
000000e0: c1b3 9abc cc28 bb3c 824c 43bd b88b 013d
000000f0: 6f77 3f3d 8a50 fabb 5846 6c3c ae56 033d
00000100: 0553 d13d 0e4a 22be 66db 2dbe d4b7 513c
00000110: 6414 b3bc 839d ce3b 6507 ce3c 766e 3cbd
00000120: 286d bf3d 7678 2dbb e9fb 543d 132d 743d
00000130: 85aa 05bd ab13 80bd dca5 903c c161 94bd
00000140: 67a2 2abe 1caf 4c3d d729 d23d a39a b43d
00000150: 2c73 b5bd ba6b 6a3d 67fc 0b3e 3c46 ba3d
00000160: 2ad7 b4bd b39a 0d3d d5f6 2abc 4adc 3cbe
00000170: fa3f 22bd da71 3fbc 5f3c b93d b4ad 0d3d
00000180: 8a52 c93d 4f9c 39bd 2d5f 43be f0d4 cabd
00000190: 96d6 963d b2fc 34bb 7de3 c7bc 1905 d1bd
000001a0: 2fc5 013d 0ac1 89bc d387 8b3c e6ce c4bc
000001b0: 6ad2 953d dc04 9fbc adab 8ebd 2074 3abd
000001c0: 788e a43d ea85 f23b b80d 66bd 4f18 9abe
000001d0: 70bf 823d 06bd bfbd 5d65 16be cf70 37be
000001e0: e3a7 b33c b182 d9ba 0efa 3fbc 2a70 6f3d
000001f0: 1d38 6dbd b3aa 893d 0d6f bb3c 4c50 7ebc
00000200: 384a 193d c6c0 c43c 4b28 793e d323 59be
00000210: 679f 46bb 70ba 013d 6ce7 51bb 9bf8 21bd
00000220: a621 683d 8c43 8abc f11b b03d a194 2fbe
00000230: e068 033e 3f56 943d e34f 2a3d 533f 0bbe
00000240: f9db 96bd 20be 303d 0ae8 f33d c0d7 683e
00000250: 09f0 cc3b 4dcd 2ebc e800 99bd 0300 1ebd
00000260: 8491 0fbd df2b 2abd 4fb7 113d f0d0 243d
00000270: 6ddc 723a 5cd2 a33d 8ddb 1a3d f6f5 82bc
00000280: d18a 9abc 94c9 813d 936b b43d fc2b 4a3e
00000290: 79a5 a0bc bec5 0ebd ed2b e43b da6e d13d
000002a0: 7fec 55bd 4246 99bd ede7 623c 3486 b0bc
000002b0: 3f8f 97bb c3fe 193d 02eb 0ebd 1d20 f8bd
000002c0: 360b e23d 2b28 413d d269 34be 8010 7ebe
000002d0: 20c8 f93c 6e9f 9cbd c105 c0bd c88b 06be
000002e0: fb22 403c f8cf 363d feb0 213c 288b cc3d
000002f0: bfef 14bd 9dce 563d 19d2 913c 0aac 7dbd
00000300: 4e06 963a 1dc3 353d 94fc 96bd ab49 b1bd
00000310: fff7 e13c 5924 55bc fba7 53bd e266 2a3d
00000320: adcf 80bc 7ea4 823c 06ac 873d 24ea 333c
00000330: 47c0 e7bc 0358 993d fba0 96bd 0d7a 17bd
00000340: c269 bf3c 816d 3bbe 46d2 30bd 89b4 503d
00000350: 943d 913d 2516 f63c 49f3 183d f9c7 eebc
00000360: 86f8 08bd add0 d5bd de01 c73d 847f e63d
00000370: 5db7 80bc b995 30bc d765 aabc b49d a23d
00000380: 8e4a 81bd da7f 7b3b 2826 383e 00ba 503e
00000390: 48bd 383c 8e1b a03c 83e0 c8bd bab5 243d
000003a0: fcc7 20bd 002d 9c3b 132a 2b3d ab90 fcbc
000003b0: a38b fcbc d643 73bc 59c0 ce3d a1c0 6b3c
000003c0: e1b8 dbbd eb88 bcbd da50 633d e4f5 723e
000003d0: e152 9dbd 3d85 263d 8f5b 64bd e099 103d
000003e0: 6c64 903c 7fc5 61bc 1450 5e3c ceb8 5f3c
000003f0: a641 99bd 5fbe 723c 4e7b 1b3d 5fe4 f43d

fc1.bias f4 [50]
0.13996293 0.1965199 0.2113939 -0.029273128 0.019120704 0.10558103 0.09702046 0.12690549
0.068942875 0.17911284 0.0011635809 0.1651011 0.2177533 0.045278534 0.13754246 0.11510416
0.17044206 0.028147396 0.018064758 0.15549505 0.012457527 0.021152709 -0.017457409 0.0908752
0.14234088 0.110961646 0.021911403 0.061902095 0.03475132 0.12857182 0.04816748 0.15171613
0.024311014 0.07849253 0.17238763 0.011442494 0.024877548 0.26827276 0.1491731 0.018650256
0.040322036 0.05982972 0.09166424 -0.0039476096 0.15713416 -0.0511219 -0.0048564416 0.09232613
0.07331602 0.05141935
00000000: 7152 0f3e 833c 493e a477 583e 33ce efbc
00000010: 06a3 9c3c de3a d83d aab2 c63d 83f3 013e
00000020: ec31 8d3d 5b69 373e 4c83 983a 4310 293e
00000030: b9fa 5e3e fc75 393d eed7 0c3e bbbb eb3d
00000040: 5d88 2e3e 5e95 e63c 8bfc 933c 183a 1f3e
00000050: a81a 4c3c 7248 ad3c d702 8fbc c71c ba3d
00000060: cfc1 113e dc3f e33d 8b7f b33c 0d8d 7d3d
00000070: 6657 0e3d 55a8 033e 434b 453d 795b 1b3e
00000080: e427 c73c b1c0 a03d 6286 303e 4c79 3b3c
00000090: 00cc cb3c 0c5b 893e d5c0 183e 6cc8 983c
000000a0: b828 253d 0210 753d 76ba bb3d f35a 81bb
000000b0: c7e7 203e 3365 51bd c922 9fbb 7b15 bd3d
000000c0: b626 963d 199d 523d

fc2.weight f4 [10, 50]
-0.21039566 0.10525396 -0.12398582 0.10313132 -0.31296694 -0.05592332 -0.27976203 -0.0021572863
0.13284336 -0.25194556 -0.055486936 -0.1922231 -0.17023052 -0.19694526 -0.16786613 0.1507231
-0.08360487 0.20406848 -0.20050508 -0.3999888 -0.16588907 0.15361255 0.11114479 0.01902906
-0.06447406 -0.20376742 0.12643889 0.20237549 0.10367152 -0.2725529 0.1253409 -0.29355896
0.16372615 -0.0116858855 0.15186222 -0.21364872 0.1842931 -0.16132356 0.10573605 -0.27381855
-0.2296873 -0.15015195 0.09089545 -0.19989583 -0.23728624 0.1100378 0.12562956 -0.30628428
0.1777649 -0.07051832 0.19908662 -0.111245304 0.10832238 -0.21568492 -0.29075286 -0.27263606
0.13424131 0.07105253 -0.16489707 0.15594985 -0.119813405 0.13233793 0.117308185 -0.09138817
0.16829067 -0.24244514 0.24558087 -0.039864518 -0.08290145 0.05903327 0.008410626 0.0929541
0.06444498 -0.21080682 -0.04563935 0.04347046 -0.15428428 -0.14443347 -0.21414618 0.046672914
-0.29729933 0.10796748 0.11372009 -0.05336118 0.114183985 -0.19121446 -0.03337102 0.12118823
0.109707944 -0.3893244 0.080008484 -0.3364084 0.17850086 -0.020181095 0.15830766 -0.33508688
-0.21474774 0.0895709 0.025484188 -0.2147284 -0.030838506 -0.189998 -0.14306852 -0.03131604
-0.013354561 -0.075150564 -0.0917016 -0.13495228 0.13643032 0.15570687 -0.12188977 0.166897
0.15880981 0.09204203 0.16345376 -0.1039014 -0.031015819 0.14598443 0.1159095 -0.31781483
0.12359107 -0.14690852 -0.1799391 -0.02103105 0.10782437 0.066306464 0.09734031 0.16633326
-0.042153377 0.030491268 -0.008845401 -0.12280381 0.15239666 0.1872535 0.11569479 -0.1354198
0.14932443 -0.0023529055 0.14695093 -0.14061043 -0.17720036 -0.17010501 -0.20131655 0.13930239
0.14191903 -0.023990856 0.100800835 -0.21400575 0.13970505 -0.12752828 0.1317837 -0.111360386
-0.30383098 -0.17196275 0.1067515 -0.21694206 -0.03928631 -0.2600559 0.13947926 0.1671005
0.14235431 0.08782609 -0.1782042 0.092522815 -0.15637809 -0.22858103 -0.07857723 0.021698076
0.12870085 0.06601199 0.14446275 -0.24858078 -0.011742302 0.00086353126 -0.084770605 0.060382385
0.009944901 -0.031925753 0.18498862 0.0396652 0.12433188 -0.103470504 -0.103269115 -0.1290976
0.10439289 -0.110080644 -0.08330191 -0.22006623 0.01985993 -0.14574137 0.13070011 -0.031566095
0.15821047 0.0785187 0.17015682 0.022866376 0.08794422 -0.21272984 0.103357755 0.11035491
0.18665889 -0.08416662 0.12716024 0.09548155 -0.063477 0.17914778 0.14544335 0.089487925
0.14285903 -0.04895924 -0.18966624 -0.21722609 -0.10926516 0.09508617 -0.170827 0.16546611
0.010182679 -0.02232252 0.15206042 0.060695358 -0.17717826 -0.10431951 -0.16030508 -0.39324957
-0.10723572 0.03894531 -0.20464079 0.10139816 -0.21832259 0.07316607 -0.41495094 -0.081555225
0.16743085 0.19652851 -0.24318951 0.07863671 0.1296517 0.10968803 -0.24900876 0.07907842
0.07893557 0.07919212 -0.17487636 -0.14570674 -0.121518835 0.15654485 -0.16402702 -0.027193042
-0.13697666 -0.20399836 -0.2431407 0.13514039 -0.12660316 0.12648174 0.09689166 -0.06095103
00000000: f671 57be 638f d73d 47ec fdbd 8336 d33d
00000010: 343d a0be da0f 65bd f83c 8fbe 4261 0dbb
00000020: 1708 083e 02ff 80be 4546 63bd 22d6 44be
00000030: e950 2ebe 05ac 49be 19e5 2bbe 2857 1a3e
00000040: 0839 abbd 54f7 503e 3451 4dbe 55cb ccbe
00000050: d3de 29be 9c4c 1d3e e19f e33d d5e2 9b3c
00000060: fa0a 84bd 68a8 50be 3279 013e 853b 4f3e
00000070: bc51 d43d 0e8c 8bbe 5d59 003e 5c4d 96be
00000080: d4a7 273e 2876 3fbc c581 1b3e bbc6 5abe
00000090: 55b7 3c3e 0132 25be 248c d83d f231 8cbe
000000a0: 2633 6bbe 6fc1 19be 6527 ba3d 7eb1 4cbe
000000b0: 2afb 72be 805b e13d 09a5 003e 4bd1 9cbe
000000c0: 0008 363e e96b 90bd 5ddd 4b3e 94d4 e3bd
000000d0: 20d8 dd3d 82dc 5cbe 8fdd 94be f496 8bbe
000000e0: 8e76 093e fd83 913d c7da 28be 51b1 1f3e
000000f0: bb60 f5bd 9883 073e 463f f03d b929 bbbd
00000100: 6454 2c3e 8a43 78be 8d79 7b3e fa48 23bd
00000110: 3cc8 a9bd dfcc 713d b9cc 093c b85e be3d
00000120: bbfb 833d bedd 57be 54f0 3abd 150e 323d
00000130: b3fc 1dbe 5ee6 13be 2349 5bbe 192c 3f3d
00000140: 9e37 98be 0e1e dd3d 14e6 e83d 4191 5abd
00000150: 4bd9 e93d b9cd 43be 0db0 08bd 8931 f83d
00000160: 8fae e03d 8755 c7be 7ddb a33d b93d acbe
00000170: eec8 363e d352 a5bc 671b 223e 8290 abbe
00000180: d5e6 5bbe f370 b73d 37c4 d03c c3e1 5bbe
00000190: 09a1 fcbc d68e 42be 8e80 12be 3f45 00bd
000001a0: 17cd 5abc 8ae8 99bd 0cce bbbd ee30 0abe
000001b0: 64b4 0b3e 9f71 1f3e 58a1 f9bd 0ce7 2a3e
000001c0: 0a9f 223e 8880 bc3d 6c60 273e 42ca d4bd
000001d0: e314 febc f17c 153e f661 ed3d a0b8 a2be
000001e0: 511d fd3d 306f 16be f541 38be 4f49 acbc
000001f0: 06d3 dc3d afcb 873d 5b5a c73d 4453 2a3e
00000200: 05a9 2cbd d3c8 f93c 4dec 10bc 9080 fbbd
00000210: df0d 1c3e 62bf 3f3e 64f1 ec3d 7dab 0abe
00000220: 81e8 183e 3433 1abb 4e7a 163e 2efc 0fbe
00000230: 0374 35be 0230 2ebe ed25 4ebe 49a5 0e3e
00000240: 3953 113e 7988 c4bc ab70 ce3d 5324 5bbe
00000250: d70e 0f3e c696 02be 4ef2 063e ea10 e4bd
00000260: bc8f 9bbe 0117 30be 88a0 da3d 0f26 5ebe
00000270: afea 20bd 0c26 85be a7d3 0e3e 651c 2b3e
00000280: 54c5 113e 2ade b33d 297b 36be 9a7c bd3d
00000290: 9421 20be 2511 6abe 19ed a0bd 2ac0 b13c
000002a0: 28ca 033e 4b31 873d 0bee 133e f68b 7ebe
000002b0: c962 40bc 9a5e 623a 369c adbd 8553 773d
000002c0: f0ef 223c 94c4 02bd a86d 3d3e fa77 223d
000002d0: b6a1 fe3d 58e8 d3bd c27e d3bd 2932 04be
000002e0: f1cb d53d f671 e1bd 319a aabd 0b59 61be
000002f0: 4bb1 a23c 3a3d 15be 40d6 053e 734b 01bd
00000300: ed01 223e 6ace a03d 973d 2e3e 4452 bb3c
00000310: 191c b43d dad5 59be 3bad d33d c101 e23d
00000320: 8223 3f3e 8d5f acbd 4b36 023e d58b c33d
00000330: 3b00 82bd 8472 373e 1aef 143e 7245 b73d
00000340: a349 123e 7c89 48bd de37 42be 8470 5ebe
00000350: 6ac6 dfbd 8abc c23d 46ed 2ebe f36f 293e
00000360: 40d5 263c b8dd b6bc bab5 1b3e b29b 783d
00000370: 386e 35be 78a5 d5bd 0427 24be 0258 c9be
00000380: 679e dbbd 1e85 1f3d 5b8d 51be d7a9 cf3d
00000390: f58f 5fbe 18d8 953d 7374 d4be 6d06 a7bd
000003a0: fe72 2b3e c53e 493e ac06 79be 490c a13d
000003b0: 6ac3 043e 1ea4 e03d 27fc 7ebe def3 a13d
000003c0: f9a8 a13d 7a2f a23d ca12 33be 2634 15be
000003d0: dede f8bd 4b4d 203e b3f6 27be f1c3 debc
000003e0: 9c43 0cbe f2e4 50be e0f9 78be 3e62 0a3e
000003f0: 42a4 01be 6e84 013e 226f c63d caa7 79bd

fc2.bias f4 [10]
0.26049843 0.32219085 -0.11252939 -0.106306 -0.28521755 -0.023294896 -0.06722662 -0.16434173
0.3279126 0.27687067
00000000: 0d60 853e 33f6 a43e cf75 e6bd f6b6 d9bd
00000010: 0908 92be f0d4 bebc 1cae 89bd 3349 28be
00000020: 29e4 a73e fec1 8d3e
